…
xpert_eps": 0.1, "perfect_grasp": false, "perfect_place": false, "perlin": 0.0, "planner_episode": 0, "planner_pos_noise": 0, "planner_rot_noise": 0, "pre_train_step": 0, "q2_model": "cnn", "q3_input": "proj", "random_orientation": true, "render": false, "reward_type": "sparse", "robot": "kuka", "save_freq": 500, "seed": null, "simulate_grasp": true, "simulator": "pybullet", "sl": false, "target_update_freq": 100, "test": false, "time_limit": 10000, "training_iters": 1, "training_offset": 1000, "workspace_size": 0.3, "model_shape": "[ResUCatShared(\n  (conv_down_1): Sequential(\n    (enc-conv0): Conv2d(1, 32, kernel_size=(3, 3), stride=(1, 1), padding=(1, 1))\n    (enc-relu0): ReLU(inplace=True)\n    (enc-res1): BasicBlock(\n      (conv1): Conv2d(32, 32, kernel_size=(3, 3), stride=(1, 1), padding=(1, 1), bias=False)\n      (relu): ReLU(inplace=True)\n      (conv2): Conv2d(32, 32, kernel_size=(3, 3), stride=(1, 1), padding=(1, 1), bias=False)\n    )\n  )\n  (conv_down_2): Sequential(\n    (enc-pool2): MaxPool2d(kernel_size=2, stride=2, padding=0, dilation=1, ceil_mode=False)\n    (enc-res2): BasicBlock(\n      (downsample): Sequential(\n        (0): Conv2d(32, 64, kernel_size=(1, 1), stride=(1, 1), bias=False)\n      )\n      (conv1): Conv2d(32, 64, kernel_size=(3, 3), stride=(1, 1), padding=(1, 1), bias=False)\n      (relu): ReLU(inplace=True)\n      (conv2): Conv2d(64, 64, kernel_size=(3, 3), stride=(1, 1), padding=(1, 1), bias=False)\n    )\n  )\n  (conv_down_4): Sequential(\n    (enc-pool3): MaxPool2d(kernel_size=2, stride=2, padding=0, dilation=1, ceil_mode=False)\n    (enc-res3): BasicBlock(\n      (downsample): Sequential(\n        (0): Conv2d(64, 128, kernel_size=(1, 1), stride=(1, 1), bias=False)\n      )\n      (conv1): Conv2d(64, 128, kernel_size=(3, 3), stride=(1, 1), padding=(1, 1), bias=False)\n      (relu): ReLU(inplace=True)\n      (conv2): Conv2d(128, 128, kernel_size=(3, 3), stride=(1, 1), padding=(1, 1), bias=False)\n    )\n  )\n  (conv_down_8): Sequential(\n    (enc-pool4): MaxPool2d(kernel_size=2, stride=2, padding=0, dilation=1, ceil_mode=False)\n    (enc-res4): BasicBlock(\n      (downsample): Sequential(\n        (0): Conv2d(128, 256, kernel_size=(1, 1), stride=(1, 1), bias=False)\n      )\n      (conv1): Conv2d(128, 256, kernel_size=(3, 3), stride=(1, 1), padding=(1, 1), bias=False)\n      (relu): ReLU(inplace=True)\n      (conv2): Conv2d(256, 256, kernel_size=(3, 3), stride=(1, 1), padding=(1, 1), bias=False)\n    )\n  )\n  (conv_down_16): Sequential(\n    (enc-pool5): MaxPool2d(kernel_size=2, stride=2, padding=0, dilation=1, ceil_mode=False)\n    (enc-res5): BasicBlock(\n      (downsample): Sequential(\n        (0): Conv2d(256, 512, kernel_size=(1, 1), stride=(1, 1), bias=False)\n      )\n      (conv1): Conv2d(256, 512, kernel_size=(3, 3), stride=(1, 1), padding=(1, 1), bias=False)\n      (relu): ReLU(inplace=True)\n      (conv2): Conv2d(512, 512, kernel_size=(3, 3), stride=(1, 1), padding=(1, 1), bias=False)\n    )\n    (enc-conv5): Conv2d(512, 256, kernel_size=(1, 1), stride=(1, 1), bias=False)\n  )\n  (conv_up_8): Sequential(\n    (dec-res1): BasicBlock(\n      (downsample): Sequential(\n        (0): Conv2d(512, 256, kernel_size=(1, 1), stride=(1, 1), bias=False)\n      )\n      (conv1): Conv2d(512, 256, kernel_size=(3, 3), stride=(1, 1), padding=(1, 1), bias=False)\n      (relu): ReLU(inplace=True)\n      (conv2): Conv2d(256, 256, kernel_size=(3, 3), stride=(1, 1), padding=(1, 1), bias=False)\n    )\n    (dec-conv1): Conv2d(256, 128, kernel_size=(1, 1), stride=(1, 1), bias=False)\n  )\n  (conv_up_4): Sequential(\n    (dec-res2): BasicBlock(\n      (downsample): Sequential(\n        (0): Conv2d(256, 128, kernel_size=(1, 1), stride=(1, 1), bias=False)\n      )\n      (conv1): Conv2d(256, 128, kernel_size=(3, 3), stride=(1, 1), padding=(1, 1), bias=False)\n      (relu): ReLU(inplace=True)\n      (conv2): Conv2d(128, 128, kernel_size=(3, 3), stride=(1, 1), padding=(1, 1), bias=False)\n    )\n    (dec-conv2): Conv2d(128, 64, kernel_size=(1, 1), stride=(1, 1), bias=False)\n  )\n  (conv_up_2): Sequential(\n    (dec-res3): BasicBlock(\n      (downsample): Sequential(\n        (0): Conv2d(128, 64, kernel_size=(1, 1), stride=(1, 1), bias=False)\n      )\n      (conv1): Conv2d(128, 64, kernel_size=(3, 3), stride=(1, 1), padding=(1, 1), bias=False)\n      (relu): ReLU(inplace=True)\n      (conv2): Conv2d(64, 64, kernel_size=(3, 3), stride=(1, 1), padding=(1, 1), bias=False)\n    )\n    (dec-conv3): Conv2d(64, 32, kernel_size=(1, 1), stride=(1, 1), bias=False)\n  )\n  (conv_up_1): Sequential(\n    (dec-res1): BasicBlock(\n      (downsample): Sequential(\n        (0): Conv2d(64, 32, kernel_size=(1, 1), stride=(1, 1), bias=False)\n      )\n      (conv1): Conv2d(64, 32, kernel_size=(3, 3), stride=(1, 1), padding=(1, 1), bias=False)\n      (relu): ReLU(inplace=True)\n      (conv2): Conv2d(32, 32, kernel_size=(3, 3), stride=(1, 1), padding=(1, 1), bias=False)\n    )\n  )\n  (conv_cat_in_hand): Sequential(\n    (enc-res6): BasicBlock(\n      (downsample): Sequential(\n        (0): Conv2d(512, 256, kernel_size=(1, 1), stride=(1, 1), bias=False)\n      )\n      (conv1): Conv2d(512, 256, kernel_size=(3, 3), stride=(1, 1), padding=(1, 1), bias=False)\n      (relu): ReLU(inplace=True)\n      (conv2): Conv2d(256, 256, kernel_size=(3, 3), stride=(1, 1), padding=(1, 1), bias=False)\n    )\n  )\n  (in_hand_conv): InHandConv(\n    (in_hand_conv): Sequential(\n      (cnn_conv1): Conv2d(1, 64, kernel_size=(3, 3), stride=(1, 1))\n      (cnn_relu1): ReLU(inplace=True)\n      (cnn_conv2): Conv2d(64, 128, kernel_size=(3, 3), stride=(1, 1))\n      (cnn_relu2): ReLU(inplace=True)\n      (cnn_pool2): MaxPool2d(kernel_size=2, stride=2, padding=0, dilation=1, ceil_mode=False)\n      (cnn_conv3): Conv2d(128, 256, kernel_size=(3, 3), stride=(1, 1))\n      (cnn_relu3): ReLU(inplace=True)\n    )\n  )\n  (pick_q_values): Conv2d(32, 1, kernel_size=(1, 1), stride=(1, 1))\n  (place_q_values): Conv2d(32, 1, kernel_size=(1, 1), stride=(1, 1))\n)]"}